Assets/AI/elite_enemies_model.onnx (onnx, 106280 bytes, 12 tensors)

model/secondary_output/MatMul/ReadVariableOp:0 f4 [64, 4]
00000000: a149 76be eed9 3f3e 0e2d ffbe 4608 433e
00000010: 23d3 6c3e a82f 0ebe 0133 fabe 4adf 203e
00000020: 2d51 a9be 338c 0a3e e6a1 9cbd 55fe 40be
00000030: 7800 183e 680b eabd 486c edbd e34f 06be
00000040: 35e8 5ebe bca2 e4bc 98dd 5e3e a108 a9be
00000050: f722 063e edce 723d 5488 3bbd 8c1f b7be
00000060: 3a11 0ebf 2354 6b3e edc9 713e 685a edbd
00000070: 4d6f 713e 7a3e 97bf 6c47 4c3e 8c89 8d3e
00000080: f0c7 0e3e 9e5c ccbe c608 98bb a7b5 00bf
00000090: 4e70 0cbf 2359 43be 8ecf c03d 9fb2 0f3e
000000a0: bde0 10bf 2ee1 923e 39fd 653e e8b8 a13e
000000b0: 4d3c 6dbf 89bc 1c3e c6a7 613e d7fe 8a3e
000000c0: 1658 183e e858 1a3e 34b6 61bf 0319 053e
000000d0: 4e14 f33d d956 81be 6605 1c3e ee8b 94be
000000e0: b401 ad3c 4456 dcbe 539d c5bd 87d0 22bf
000000f0: ee88 06bc bd2b 40bb 64df 30bf 0984 d2bc
00000100: 9bed 46be 0a86 be3d b2e2 bdbe 6d27 523e
00000110: 9bbf 603e 7d8a 4b3e b02c 823d a88f 57be
00000120: 1391 713e 5d86 83bf 5a5d 783e 1728 7b3e
00000130: c242 8b3e c6e4 c1be b059 07be 68c7 513e
00000140: fd53 8e3e 6161 37be 79da a7be 123d 903e
00000150: 3d78 12bf bd1a 4d3e 2029 543e b306 4a3e
00000160: c4dc 263b 27c4 a2be 7a4e dabe 9bd1 e9bc
00000170: ebea 86bf 8aa1 323d 5879 2c3d 02a3 f13d
00000180: a105 e0be 3c55 de3c 5f5b 2dbf 7a27 babd
00000190: ad04 f0bc 05ec 533e 5fe7 823e 6ae9 bbbe
000001a0: 776b 843e 3498 9d3e 53e6 fcbe e0ee 043e
000001b0: 3a9e c6be 94f5 5b3e e12e 473e 8756 74be
000001c0: 626d 9ebd 81c5 95bd c7c6 963e ef2e 69be
000001d0: c41d cfbe 76c9 b0be dcc5 053d f93a 343e
000001e0: ee20 223e 3233 103e d72d 92bf 2a86 4b3e
000001f0: f9e0 333e 27e7 4a3e 1c91 503e 9566 5cbf
00000200: 4f69 4b3e 87f9 5a3e eb76 493e 9780 4cbf
00000210: fcdb 5e3e 7e1d a0be 837e a2bc 5a44 4d3e
00000220: b71f 993e 4a98 8e3e 7e81 963e 7f99 97bf
00000230: 3486 50bd b4a5 bbbe 7028 903e 3744 3ebd
00000240: 1ad8 63be 12ff f7be 2bfa 343e fdd0 533e
00000250: 9e28 843e c333 833e bfaf 78bf dc60 993e
00000260: dd49 283e 607d 6e3e 6af6 86bf 1782 5b3e
00000270: dfe1 3dbf 8f15 983e ed02 943e 3f9b 8f3e
00000280: e23d 8a3e 74c8 20bf b93b 873e 9a8c 993e
00000290: 86fe f6be f8b9 5dbe 9343 d23c df61 8f3d
000002a0: 3c30 70bd fb3a ba3d 9c40 cabe fd4a 853e
000002b0: 99f9 123e 33b1 ea3d 9205 023e f4a6 61bf
000002c0: a6a5 5a3e 371c bebc 1aed 843e 5f6e 2bbf
000002d0: b24b 80bc 04a8 3d3e 91d9 87bd b49a 3cbd
000002e0: bc36 493e 8bba 533e 029d 1dbc 3b2e cabd
000002f0: d86f 473e 38cd 36be 32f4 6abe 7745 213e
00000300: d715 793e 2cf1 02bf 14e6 613e c96b 633d
00000310: 90fa a03e c632 9a3e f553 9a3e 4ee9 53bf
00000320: cbfa 883e cc60 34bf 1c32 c9bd 9702 673e
00000330: b8e4 8c3e afa5 f3be a2e6 403e a3ee b63d
00000340: 56ab 97bf 3ad5 a2bd 1244 dfbd 9c2f bfbd
00000350: 3ebb 953d 7697 cd3e 97d3 6cbe 5ff6 a93e
00000360: b449 f03d d604 97be 2cc9 963e ec2e 923e
00000370: 99e1 943e 648c 8f3e baa6 cfbd 1efb 80bc
00000380: 292b 923e d44f 54bf 9aa2 8d3e 5125 9b3e
00000390: 15b2 1cbf 45c4 e63d df29 dd3d ce81 74be
000003a0: a543 a0bf 2947 603e 41ac 1e3e 208d 563e
000003b0: 4fbc 803e b699 5b3e e157 9ebe 564f 8bbe
000003c0: 372c d4be a779 413a 63b5 06be 45e8 4e3e
000003d0: ed83 843e 8421 2ebe 701e 503e bd89 d4be
000003e0: 26bb 243e efc8 08bf 51d2 e13d a898 0d3e
000003f0: 0cde f1be 4d5f bc3d 1d02 5d3e a8f9 9dbd
-0.24051525 0.18735477 -0.49839061 0.19046125 0.23127417 -0.13885367 -0.48867038 0.15710178
-0.33069745 0.13530044 -0.07648067 -0.1884702 0.14843929 -0.11427957 -0.11592919 -0.13116412
-0.21768267 -0.027909629 0.21764219 -0.33014396 0.13099276 0.05927937 -0.04578431 -0.35766256
-0.55495036 0.22981314 0.23612185 -0.11589509 0.23577614 -1.1815941 0.1994912 0.27644002
0.13943458 -0.3991441 -0.0046397178 -0.5027718 -0.54858863 -0.19076972 0.09414588 0.14032982
-0.56592923 0.28687423 0.22459878 0.31586385 -0.92670137 0.15306295 0.22036657 0.27147552
0.14877352 0.15072978 -0.88168645 0.12997822 0.11869107 -0.25261572 0.15236434 -0.29013008
0.021118976 -0.43034565 -0.09649148 -0.6359944 -0.0082113575 -0.0029322945 -0.6909087 -0.025697725
-0.19426577 0.0930291 -0.37087017 0.20522852 0.21948092 0.19877048 0.0635618 -0.21050894
0.23590498 -1.027538 0.24254361 0.24527012 0.2719937 -0.37869853 -0.13217807 0.20486224
0.27798453 -0.17908241 -0.3278387 0.28171593 -0.5721472 0.20029731 0.20718813 0.19729118
0.0025461176 -0.31790277 -0.42637998 -0.02854233 -1.0540441 0.043611087 0.04210791 0.117986694
-0.43754295 0.027140252 -0.67717546 -0.09089561 -0.029299105 0.20695503 0.25567147 -0.36701518
0.2586324 0.30780184 -0.49394473 0.12981749 -0.38792592 0.214804 0.19451477 -0.23861133
-0.07735707 -0.073130615 0.2944853 -0.2277181 -0.40452397 -0.34528702 0.032659397 0.17600621
0.15832874 0.1408203 -1.1420239 0.19875398 0.17566289 0.1981474 0.20367855 -0.8609403
0.19864391 0.2138425 0.1967427 -0.7988371 0.21763605 -0.312725 -0.019835716 0.20045605
0.2990701 0.27850562 0.2939567 -1.1843718 -0.050909236 -0.3664986 0.2815585 -0.046451773
-0.22250405 -0.4843679 0.17673557 0.20685191 0.25812238 0.2562543 -0.9714317 0.2995671
0.16434427 0.23290014 -1.054395 0.21436344 -0.74172777 0.29703948 0.28908482 0.2804813
0.27000338 -0.6280587 0.26412752 0.29990083 -0.4824106 -0.21652973 0.025666988 0.07001089
-0.05863975 0.09093281 -0.39502418 0.26033774 0.14353026 0.11459579 0.12697437 -0.88145375
0.21352252 -0.023206813 0.25962144 -0.6696529 -0.015661094 0.18521124 -0.066332944 -0.046045974
0.19649786 0.20676629 -0.009619953 -0.09872099 0.19476259 -0.17851722 -0.22944716 0.15749155
0.24324737 -0.5114925 0.22060424 0.055522714 0.31441164 0.30116862 0.3014218 -0.8277787
0.2675384 -0.704602 -0.09824011 0.22559582 0.2751825 -0.47587344 0.1883798 0.08932235
-1.1849163 -0.07950826 -0.10901655 -0.09335253 0.07311104 0.40154618 -0.2312759 0.3319578
0.11732808 -0.29495877 0.29450357 0.28551424 0.29078367 0.28036797 -0.101392224 -0.015744742
0.28548554 -0.8293431 0.27663118 0.30301908 -0.6120923 0.11267904 0.10799002 -0.23877642
-1.2520643 0.21902145 0.15495397 0.20952272 0.25143668 0.21445355 -0.3092642 -0.27208966
-0.41439983 0.00073804933 -0.13155131 0.20205791 0.258819 -0.17004973 0.20324111 -0.41511336
0.16087016 -0.534316 0.11026443 0.13827765 -0.4723972 0.09197865 0.21582837 -0.07713634

model/secondary_output/BiasAdd/ReadVariableOp:0 f4 [4]
00000000: 6109 7ebd 37b7 6b3d 9bea 0f3d a0dc debc
-0.062020663 0.057547774 0.035135847 -0.027204812

model/primary_output/MatMul/ReadVariableOp:0 f4 [64, 6]
00000000: 41af a8be 914d f6bc 43eb b13b 4f01 963c
00000010: 687f d5be 2729 dc3d 8f66 cabf be0d dd3d
00000020: 4a80 dc3d 1d7f 40be 5452 0b3e 9156 ed3d
00000030: e57a 453e 0ea2 4a3e db6b dbbe 40b2 1d3e
00000040: a48b 0abe 67ab a4be 43af 873e dd99 4bbf
00000050: 489c 7c3e 1445 7f3e 09ca 13be 51b5 8d3e
00000060: 50aa 403e 0915 8ebf c377 543e 7c51 143e
00000070: cb5a 4e3e 9cb9 623e 0337 cabd b1d7 853a
00000080: b8cb 303e 057a 143e bdac 1bbf 11db 63bc
00000090: f9cb 393e 7eb1 563e 5d57 d0be 00ad 6b3e
000000a0: 23f4 7fbe 1a29 6dbe c2bc f23d 1744 57bf
000000b0: f0a9 de3d c237 75be a234 f53c 2ffb f73d
000000c0: 2b0f 97bc 7952 debd cf3b 5c3a 02e1 e5be
000000d0: f59f 8dbe 6371 1dbe 96d9 c2bf d95b f63d
000000e0: 6569 b33d 8012 e63d fbee 033e 6c34 46bf
000000f0: 3e4d 0ebe dc79 eebd 892d 9dbe bdb9 8cbf
00000100: 36a5 473e dc1d 54bd 4e09 553e a06d 4cbf
00000110: 6f0e 4e3e 1460 0cbf ed9b 30be a65b 343e
00000120: 1668 9a3e 54c8 0bbf 0cf5 a63e 5da6 923e
00000130: 2777 dcbd 5a85 9e3e 3b41 1fbe 7591 92be
00000140: 301b 5a3e fa2c 433e 4965 5c3e bf50 3f3e
00000150: 80b2 dbbc 8765 23bf caf9 65bc 223e 84bd
00000160: 63f2 87bd 1ef9 36bd 54eb 133e 1d08 9a3e
00000170: 43ba 0cbf d31a 4dbe 6965 823e d6de 6ebf
00000180: 5e69 8c3d 8ec8 be3d 5c98 adbe e7e1 99bf
00000190: f404 893d 2c3a f03d 18ca cdbe 7895 9f3e
000001a0: e325 913e ad19 343e 1953 913e c555 26be
000001b0: 1f01 07be 4395 07be 8222 813e 9931 8a3e
000001c0: 7534 5ebe 11b8 12be b298 12bf 8f4f 1bbe
000001d0: 2149 5c3e ff84 19bc ff50 4c3e aec5 3d3e
000001e0: 65ef bd3d af6f 8d3d 33f6 40bf 182b 2ebf
000001f0: 3680 fc3d 9a0c d0bd 9fb8 9a3e a8f2 32bd
00000200: f324 46be c2db 063c 8afc a53e 35ed 65be
00000210: 5d89 d13d 7158 dd3d 47eb 98bf 32cb 143d
00000220: acd7 9b3d 47ed 59bf 38a1 dbbe aecf 6d3d
00000230: f42b 0a3e bd1d 06bf 2733 0fbc 52c1 703e
00000240: e65a 6c3e 55d9 683e 7ceb 38be f921 653e
00000250: 231b 9ebe 0fc6 ab3c 1689 063d 1a78 16bf
00000260: 016c ba3d 4828 7cbd ff68 043e 5649 1b3d
00000270: 2f8b 4c3e 2ce7 b0be 1382 7c3e 2862 07bf
00000280: 84af 493e caa1 fa3d ec6c 24bf 8427 dc3c
00000290: 971a 493e b637 3b3e ce93 3abe c5b3 c63c
000002a0: 188d 493e 20cf 4f3e f94d 3d3e 67aa 4b3e
000002b0: d46d 20bf fe21 313e 237b a5bb cb70 103e
000002c0: b54b c8be 349e 4ebe d709 4bbe bf4d aa3e
000002d0: 3bcd 8b3e c0aa 3c3e d4a6 bf39 b88b 28bf
000002e0: a9a1 c23d 1f4a 04be f948 0bbf bca0 fd3d
000002f0: 5060 73be 0212 8cbe 7f8d c33d 5670 4cbf
00000300: 12e1 eebe a26d 4d3e eda7 283e 9bf6 7cbf
00000310: 034a 3e3e 1d86 4c3e 812f 783e 4018 de3d
00000320: eab5 d5bd 7a39 97bf 0fdb 433e 58d5 c23e
00000330: 123c 55bd e5f5 12be 08e0 bbbd 594b 64be
00000340: e328 15bf 46a6 b0be 62fa c93c 151e 07bd
00000350: ae1f 9d3c f85d a03d 9206 9fbd 4155 02be
00000360: 98a3 0dbe 906f db3d 5dee 6f3e 2c8e bcbd
00000370: ea05 3e3d 2aac 263d 17fb cc3d 8f81 833c
00000380: a1ae da3d ec50 0a3e a731 6dbf 005c 9a3d
00000390: 1626 853e 9bec 883e 0e0f 7fbf 5d85 07bc
000003a0: ad87 023d 72b3 c2be 5346 a13c 7144 b8bc
000003b0: 66e0 3d3e 9e59 47be 45a6 733e 9401 57bf
000003c0: a4ec b3bf d807 353e 2bd4 843d b995 4b3e
000003d0: d857 843c 5319 53be 43bc 5dbf 0d90 913e
000003e0: 5a7a 7e3e 0c32 4ebe f5eb 9c3e 7c2e a03e
000003f0: 6318 873d 12ed d03d 11ce 29bd d3a1 123e
-0.32946208 -0.030066283 0.0054296567 0.01831117 -0.41698766 0.10750037 -1.5812548 0.10793637
0.10766657 -0.1879849 0.13605624 0.11588777 0.19285162 0.19788381 -0.42855725 0.15400028
-0.13529831 -0.3216202 0.26500902 -0.7953165 0.24668992 0.24928695 -0.14432539 0.27677396
0.18814969 -1.110017 0.2074881 0.14484209 0.20151822 0.22141117 -0.09873774 0.0010211376
0.17265213 0.14499672 -0.6081045 -0.01390721 0.18144216 0.20966145 -0.40691653 0.23015213
-0.24995475 -0.2316021 0.11852409 -0.8408827 0.10872257 -0.23947051 0.029932324 0.12108456
-0.01843985 -0.10855574 0.0008401246 -0.4489823 -0.276611 -0.15375285 -1.5222652 0.12029237
0.08760337 0.11233997 0.12884133 -0.7742374 -0.13896653 -0.116443366 -0.30698803 -1.0994183
0.19496617 -0.05178629 0.2080433 -0.79854774 0.20122693 -0.54834104 -0.17246981 0.17613086
0.30157536 -0.5460255 0.3260883 0.2864255 -0.10764914 0.30961114 -0.15552227 -0.286266
0.21299434 0.19060126 0.21523012 0.18683146 -0.026818514 -0.63826793 -0.014036605 -0.064571634
-0.066380285 -0.04467117 0.1444524 0.30084315 -0.5497171 -0.20029764 0.25467995 -0.9330877
0.06856035 0.093155965 -0.33905303 -1.2022065 0.06690398 0.117298454 -0.40193248 0.31168723
0.28349218 0.1758792 0.2838371 -0.16243656 -0.13184021 -0.13240533 0.2522164 0.26990965
-0.21699698 -0.14328028 -0.57264245 -0.15167068 0.21512271 -0.009370088 0.19952773 0.1853244
0.092741765 0.069060676 -0.7537567 -0.68034506 0.12329142 -0.101586536 0.3021898 -0.043688446
-0.19350033 0.008231105 0.32419235 -0.22453769 0.10231278 0.108078845 -1.1946801 0.036326595
0.076094955 -0.8512768 -0.42896438 0.058059387 0.1349333 -0.52389127 -0.008740223 0.23511246
0.2308155 0.22739156 -0.1805858 0.22376241 -0.3088008 0.020968465 0.03284558 -0.5877701
0.09102631 -0.061561853 0.12930678 0.037911735 0.1997497 -0.3455137 0.24658994 -0.5288415
0.1969586 0.1223789 -0.642287 0.026874311 0.1963905 0.18282971 -0.18220446 0.024255643
0.19682729 0.20293856 0.18486775 0.19889222 -0.62667584 0.17298123 -0.0050500794 0.14105527
-0.3912026 -0.20177537 -0.19827972 0.3326244 0.27305016 0.18424511 0.00036554656 -0.65838194
0.095034905 -0.129189 -0.5440822 0.12384173 -0.23767209 -0.2735749 0.095484726 -0.7985891
-0.4665609 0.20061353 0.16470309 -0.9881379 0.1858292 0.19973035 0.24236871 0.10844469
-0.10435088 -1.1814415 0.19126533 0.38053393 -0.05205924 -0.14351614 -0.0917359 -0.22294368
-0.58265513 -0.34501857 0.024655525 -0.032987673 0.019180145 0.07830423 -0.07764925 -0.12727834
-0.13831937 0.10714638 0.23430772 -0.09206805 0.04639236 0.040691532 0.10008829 0.01605299
0.10677839 0.13507432 -0.9265389 0.07537079 0.2600562 0.26743016 -0.99632347 -0.008271542
0.03186767 -0.3802753 0.019686854 -0.022493573 0.18542632 -0.1946778 0.23793896 -0.83986783
-1.4056592 0.17678773 0.0648578 0.19881333 0.016155168 -0.20615129 -0.8661539 0.28430215
0.24851361 -0.20136279 0.3064877 0.31285465 0.06596448 0.102014676 -0.041456286 0.14319544

model/primary_output/BiasAdd/ReadVariableOp:0 f4 [6]
00000000: 4a99 0fbe d254 823d 545c 5f3d 1c9b c8bd
00000010: e547 753e 32f8 a7be
-0.14023319 0.063638344 0.05453141 -0.0979521 0.23953207 -0.32806545

model/dense_3/MatMul/ReadVariableOp:0 f4 [128, 64]
00000000: d63d e13e 3530 d2be 6428 a3bd 5f1a f6be
00000010: 1fe3 fcbe 3fdf 29bf 09d0 59be a9cb 353d
00000020: cfe3 06bf 7f7c 923e a3e9 f43e a7fe 8d3e
00000030: 1cc5 ba3e 1e1e 3abf 8cc3 3bbf ec43 343e
00000040: 2430 833e 8459 823d 39f5 393e 3e55 173e
00000050: 48d7 c5bd 58be b33e 2475 893e 00cb 943e
00000060: e091 0b3f 0865 86be b2bc a33d 8017 f8bd
00000070: 11fe 35bf fe87 9a3e 4706 9dbd d77e e7be
00000080: 1320 28be 678a 2a3b 8451 febe 846e 9dbe
00000090: 830d 933d db73 973e aa2d 383c ce77 e53e
000000a0: 67f9 3e3d 18af 023e e048 c1bc cbf4 89be
000000b0: cd46 22bf 1a7b 6fbd 6dfa a2bc aace 063e
000000c0: 75c4 ecbe cc55 3cbc 820a b0bc 0947 40be
000000d0: 98c0 fe3e dfe8 6c3e 2ea2 1fbe 0706 69be
000000e0: f5eb 7abd 588e 483c cbf6 373e 1884 073e
000000f0: d487 073e ff7b babe 3d27 cdbd 5fc1 03bf
00000100: 3387 f2be a053 cbbe c647 45bf 0389 1fbf
00000110: d88a 8b3e ce62 d8be 87cb 903e f904 e03e
00000120: cb50 85be 033f 553d 28ed ba3c 4d79 a13e
00000130: 5fdd 8dbf b5a2 843e 404f d83e 61a4 6cbf
00000140: 97f9 37bf d1f2 20bf 27f9 cd3e af9e ffbe
00000150: 9e4d f3be 162a 323e c703 18bf 8fa1 193e
00000160: 63b1 8abf af65 153e f9cd 70bf cb08 8d3e
00000170: 6974 673e 9f70 b5be b2de 2fbf 8504 663e
00000180: 28ba ed3d 36ed d5be c823 3b3c 40e3 9d3e
00000190: b0c3 8f3e 01c2 1dbf 5f61 70bf 9c95 b03e
000001a0: 71bf a73e c572 15be 52ac c3be 6d64 24bc
000001b0: 95cc d93e ac00 4d3d 7b40 0ebf 00d3 29bf
000001c0: 7fbb af3e 5bad 323d fe41 1fbf 6b22 933e
000001d0: 6110 c03e 012b f2be 565e ba3e e616 2ebf
000001e0: 387e a73e 806e c23d 22cd 223f 34a6 4dbf
000001f0: 17ca 61bd 42c6 cb3e 2013 c53e 90d5 9c3e
00000200: c027 f4be 3410 1c3e ac38 12bf e9b8 783e
00000210: b1e0 2dbf 11a7 2f3e 1ea4 88bf 25a6 763e
00000220: e3e7 263e 1d3b 31bf 5559 34be ccb2 63bf
00000230: 6dae cd3d 2453 8b3e e170 0a3d 0f89 bb3e
00000240: 24fa 85be d666 5b3e 2a25 f43e 9cf6 1a3e
00000250: 0e82 093e 6552 87bf 7b16 c13e 9e23 75bf
00000260: 48a1 f0be e96f 45bf afd0 1a3e 3d9f 0bbf
00000270: 11ae 33bf 2ea3 afbe 96fc 05be 53ea fe3c
00000280: c505 06be 3fa0 df3e 8752 09be 285f 25be
00000290: 2b57 efbe 9b7e afbd 33a0 e9bd 9045 a2bf
000002a0: e959 b63e 5474 0bbf b2fa 9dbe 5342 57bd
000002b0: 2cef 783e 369c 9ebd 415d a33e 5aad ad3d
000002c0: 53bd c2bb adf8 8b3d 5970 7f3d c898 dc3e
000002d0: c3e1 7fbf f248 fcbe 13f3 d9be cf07 1a3e
000002e0: 3520 903e 0f2f 82bf 872e 8ebf 0ab4 dd3e
000002f0: d92d 92be b148 163c 5b49 183f b1b4 4dbf
00000300: bd42 b2be 6b3b 2fbe c83c bcbd 5a24 c23d
00000310: b354 a0bd 2442 953e 2ff6 933d cbc9 a03d
00000320: b412 7d3e 85d3 e7be a4d6 21be d619 c73b
00000330: 20b3 163e 41db fa3e f20b 753e 5d4e 52be
00000340: 6791 0cbf de20 253e c823 d9bd c1a8 50bd
00000350: 72fe 9bbd c24f d8be d462 863d 1131 07bf
00000360: 00c4 c1be a8a4 b6bc c727 043c 5e81 65be
00000370: 6d9c 773e bb36 23be f373 1b3e bf3a 4f3e
00000380: bd0e a8bd 9d1e 623e 79f1 713e 1d47 d53e
00000390: b40c 8b3d 1b82 763c 0899 c7bd f599 fdbe
000003a0: 503a 1f3d 82a5 2abf fc9a 01bf 8d24 883e
000003b0: ed46 993e ed19 0fbd 4e5d fbbd 2a51 8f3d
000003c0: abce 853e 9fbc 3b3e c7dc 8b3d d99d d83d
000003d0: e28c c2be 7bfb 93bd 76ef 5d3e c811 a23e
000003e0: 12a1 563e 2bcb be3d 7933 18bf aabd 1cbd
000003f0: ae3a d0bd 4030 653e 3626 adbc 7c9b 22bc
0.4399249 -0.41052404 -0.07966688 -0.48066995 -0.4939203 -0.6635627 -0.21270765 0.04438368
-0.5269136 0.28610608 0.478345 0.27733347 0.36478508 -0.72702205 -0.73345256 0.17604035
0.25622666 0.0636473 0.18159951 0.14778611 -0.09660202 0.35106158 0.26847184 0.29061127
0.5451946 -0.26248956 0.07994975 -0.12113857 -0.710908 0.3018188 -0.07667213 -0.4521396
-0.16418485 0.0026022436 -0.49671566 -0.3074838 0.071803115 0.29580578 0.011241356 0.44817966
0.046624567 0.12762105 -0.02359432 -0.26944575 -0.63389283 -0.05846701 -0.019894803 0.13164774
-0.46243635 -0.011495065 -0.021489386 -0.18777098 0.49756312 0.23135708 -0.1558921 -0.22756205
-0.061260182 0.012240969 0.17965238 0.13233984 0.13235408 -0.36422727 -0.1001725 -0.51466936
-0.47368774 -0.39712238 -0.7706264 -0.6231844 0.27254367 -0.42262882 0.2828028 0.43753794
-0.26038203 0.052062046 0.022818163 0.31537858 -1.1083182 0.25905386 0.42247963 -0.9243832
-0.7186522 -0.6287051 0.4022915 -0.49925753 -0.47520155 0.17398867 -0.59380764 0.15003036
-1.0835384 0.1458957 -0.9406429 0.2754577 0.22603 -0.35437486 -0.6869918 0.22462662
0.11607772 -0.4178254 0.011422105 0.3083744 0.28078985 -0.6162415 -0.93898576 0.34489143
0.32763246 -0.14594562 -0.38217407 -0.010033709 0.42538896 0.05004947 -0.5556714 -0.66337585
0.34322736 0.043622356 -0.6221007 0.28737196 0.37512496 -0.47298434 0.36400098 -0.6800369
0.32713485 0.094937325 0.6359426 -0.8033173 -0.05512437 0.39799696 0.38491154 0.30631685
-0.47686577 0.15240556 -0.57117724 0.24289288 -0.67920977 0.17153575 -1.0675085 0.24086817
0.16299395 -0.69230825 -0.17612202 -0.889447 0.10043035 0.2721187 0.033799056 0.36628005
-0.26167405 0.21425948 0.47684604 0.15133137 0.13428518 -1.057202 0.37712464 -0.9575747
-0.46998048 -0.77123886 0.15118669 -0.54539853 -0.7018748 -0.34304184 -0.13084635 0.031117594
-0.13088138 0.43676946 -0.13410388 -0.1614958 -0.4674619 -0.0856907 -0.11407509 -1.2677479
0.3561547 -0.5447438 -0.30855328 -0.052553486 0.24309987 -0.077446386 0.31907085 0.0848033
-0.0059429794 0.068345405 0.062363002 0.43085313 -0.9995386 -0.49274403 -0.42568263 0.15042041
0.28149572 -1.0170611 -1.1107949 0.4330142 -0.28550604 0.009172604 0.5948693 -0.8035384
-0.34816542 -0.1711251 -0.091912806 0.0947959 -0.07828655 0.29152024 0.0722469 0.07850989
0.24714166 -0.45278564 -0.15804535 0.006076078 0.14716768 0.48995402 0.23930338 -0.20537706
-0.54909366 0.16125819 -0.10602528 -0.050942186 -0.07616891 -0.4224835 0.06561819 -0.52809244
-0.3784485 -0.022295311 0.008066124 -0.22412631 0.24180765 -0.15938847 0.1518095 0.20237254
-0.08205936 0.2208199 0.23627271 0.41655818 0.06789532 0.015045668 -0.09745985 -0.49531522
0.03887397 -0.66658795 -0.5062711 0.26590386 0.29936925 -0.034936834 -0.12273656 0.06997903
0.26134238 0.18333672 0.06829219 0.10576982 -0.3799811 -0.072257005 0.21673378 0.3165419
0.20959881 0.09316095 -0.5945354 -0.038266815 -0.10167442 0.22381687 -0.021136384 -0.009924766

model/dense_3/BiasAdd/ReadVariableOp:0 f4 [64]
00000000: 35c0 7d3d 0fd9 2e3e b90e 2c3e 5cca 7e3d
00000010: 7f49 833e 4502 973c 8b56 e73d bb70 c23d
00000020: 399c 2d3e 1ceb 2e3e 975a 1a3e 9a5a 0c3d
00000030: ad8d e83d f77e 4c3e 5ff3 a93d a579 fb3c
00000040: ecd7 e33d 265e 4d3e 367d 213e 7b6a 3f3c
00000050: 36d0 293e dadd cc3d c591 3b3e b344 84bc
00000060: da75 963d 3f71 443e c839 bc3d dd81 963d
00000070: 4b56 6d3e 855e 2e3e b549 0d3d 3aea de3d
00000080: fc79 bc3d b757 4e3e 9c99 d6bb 7da5 cc3d
00000090: 10a1 5a3e c25d d63d 03d8 a33d fba5 b4bd
000000a0: 7ece 683e df2e 203e 3028 0f3e 4421 8c3d
000000b0: fb78 ba3d 95ae 04be 1a59 8a3d 294c 093e
000000c0: 6e34 2e3e 2cb4 9a3d e50f 3e3d 492b ec3d
000000d0: c1ad 9d3d 7db1 563e 644d 5d3e ed47 003e
000000e0: 0ff9 4b3e 388f 273e 790a 0bbd 0c1e 383e
000000f0: 7c4d 1a3e 801e 893e 2c53 963e 454f 183e
0.06195088 0.17074989 0.16802491 0.062204704 0.2564201 0.0184337 0.11295804 0.09494158
0.16954125 0.17081875 0.1507362 0.034266092 0.113551475 0.19970308 0.082983725 0.030697653
0.11125168 0.20055446 0.1577042 0.011683102 0.16583332 0.10003252 0.18317325 -0.01614604
0.07346697 0.19183825 0.091907084 0.07348988 0.2317745 0.17028244 0.03449412 0.10884519
0.09202954 0.20150648 -0.0065490734 0.09992502 0.21350503 0.10467102 0.08000185 -0.08820721
0.2273502 0.1564288 0.13980174 0.068422824 0.091051064 -0.12957223 0.06755276 0.13407959
0.17012188 0.07553896 0.046401877 0.115316935 0.076991566 0.20966144 0.21611553 0.12527438
0.19919227 0.16363227 -0.033945534 0.17980212 0.1506862 0.26781082 0.2936033 0.14873989

model/dense_2/MatMul/ReadVariableOp:0 f4 [128, 64]
00000000: 9485 033e eaec c43d 5f02 863e 1bc3 c3be
00000010: 97b4 4abf 6bca 7abd 05a1 793e 6c59 18bf
00000020: 6d3d 053d 1ea6 5e3e 1fc9 233e 122a e8be
00000030: 7dd6 30bf 8771 b3be 2646 47bf 1494 903d
00000040: df90 003e 09e8 543e 67cb 87be 3aeb 16be
00000050: 8b45 3d3e 6ca5 eabd f746 783e 1308 683b
00000060: 97a2 363d 2502 c2be 4506 063c 4dc6 7abe
00000070: ce01 bfbd 75bd 533e 11eb 843e 8e4f 623e
00000080: 49d5 b73e 0b5d 04bf 67e6 a5bd 7a09 76bd
00000090: ab04 53be c489 20be 3900 8d3d 4458 ba3c
000000a0: bfb1 a23e 596e eb3d d320 4abe 23d7 29bf
000000b0: 4649 cf3d 0bff 86be 2a73 aa3d ad76 31bf
000000c0: 8554 86bf e332 68bd 5b9b 013e 57b2 723e
000000d0: 8a43 a9be 3871 de3d bf0c 7e3e 13f5 b5be
000000e0: c5f7 83bf f3dd cf3d dc18 08be 326a fa3e
000000f0: 07cb b93d cc8a 993e da39 2b3e 84d2 f5bd
00000100: 1ccd b93c 49e4 8e3d b6d9 c4bc 1e09 9fbe
00000110: 1fe2 10bd 7560 a7bc cb88 dc3d edc2 0cbe
00000120: 9ceb df3d 5d17 db3d 8bb4 c13d 6af9 053e
00000130: 4e5e 5abe ad19 0ebd 4280 343d c6b3 f0bd
00000140: 4322 e33d 47c3 813d afce df3d a9d6 c53d
00000150: c4b6 943d b26b 573c 3774 fdbd 68f7 c63e
00000160: 6338 9e3d 974a 823d 74c4 82bd c5e2 e73d
00000170: b01f 813d d9db f2bc 5014 f5bc 8e3b 0b3e
00000180: d598 6c3d 8ee3 483e 0655 56bd 5b10 3dbc
00000190: 71d5 64be 9fbe e4bd 7cd9 aa3d 8e79 adbd
000001a0: 5227 153e 4f65 47bd b550 2ebd cb05 633c
000001b0: cba9 333d 52bc 0f3d 94b1 c03c 8925 9f3d
000001c0: 2025 2cbe 2c79 683e 3594 943e 847f 2bbc
000001d0: 075d 10ba 9ece 433d 3cf9 aebd 0eea 5ebe
000001e0: 7743 90be d18c 313d 2e45 c9bd 1036 6abd
000001f0: 7ea0 93be 4a06 69bd 3c0c a23d 6e90 cd3d
00000200: c98b debd 68fc 4bbc f586 203e a596 e4bc
00000210: 8633 c1bd 0149 32be b8bd e7bd 3a30 08bd
00000220: d74a 093e 7a0b 023e 94c3 dbbd 6484 5e3e
00000230: a98a 0dbe 6d66 45bd f627 52be d167 373e
00000240: c854 0c3e 20cf b13d e584 253d fdfe 6a3d
00000250: 7563 2c3e 869d 183e 4834 17be c8f4 453d
00000260: 8bb0 ed3d 00c1 773e d507 2b3e fa9a 083e
00000270: cfed e53c e9a9 a1be 02b2 41bd 37b1 c7bb
00000280: 1c4c b4bd 90f2 c73c eaf0 27be c2fc 02be
00000290: f987 b8bd 6442 933d 1d7d 1e3d 71d5 e73d
000002a0: bf0f 8bbe 5eea f9bc 590b fc3b b39e db3c
000002b0: fb6f 3e3e 65da a83d e0b6 c43d a0f2 47bd
000002c0: 397b 4dbd b0bb febd e403 1bbe fea4 fabd
000002d0: ad3d 863e 3eca d5bd d29d 153d 6e0c a43d
000002e0: fd31 11be 516c b23e 4597 803d 2309 1a3e
000002f0: 9aba 103d 5725 26be 0c2e df3d c8a4 093d
00000300: 446f 52be 549b e4be 6402 723e 066d 7bbe
00000310: 6257 94bd 7177 0ebf d937 41bb 358b 223e
00000320: 04a5 85be 713e 6abe c253 f53e 2e29 bb3e
00000330: 2c68 eebc df2c 88be 2639 923c ba40 853e
00000340: a803 2b3f 6934 e8be 3f77 6abf 4147 37be
00000350: 628f ec3e 47de ab3e a194 8c3e dc37 42be
00000360: d4bd a5bd 382d 87bc e954 7e3e 67a2 03bf
00000370: 2ad3 a0be f0a3 da3d 207e 0f3f f65b 0d3e
00000380: 0ed1 46be e80d 2f3f 4fff 3ebc 6815 29be
00000390: 423f 92bd ba55 a0bd 0cc5 533e a8c5 72be
000003a0: 8252 5abf f024 adbe 4448 943e be37 f63e
000003b0: 1e78 923e 8157 173e 5a9e f63d 90d2 693e
000003c0: 7f51 7cbc eb27 0f3e 18e6 803e 1730 4fbe
000003d0: 3a78 983e cbd3 1f3f b174 b5bd 3bfc f5bc
000003e0: cf89 6cbc 2a86 343e 0e1c 893e fc58 71bd
000003f0: 5306 9b3d a1e2 28bd 5452 6f3c 486d b3be
0.12843925 0.096155 0.26173684 -0.3823479 -0.7918181 -0.061228197 0.2437783 -0.59511447
0.032529283 0.21743056 0.1599469 -0.45344597 -0.69077283 -0.35047552 -0.77841413 0.07059494
0.12555264 0.2079164 -0.2652237 -0.1473817 0.1848356 -0.11457333 0.24245821 0.0035405203
0.04458865 -0.3789226 0.008180206 -0.24489708 -0.09326516 0.20677741 0.2596059 0.2210066
0.3590491 -0.5170447 -0.081005864 -0.06006763 -0.2060725 -0.15677553 0.06884808 0.022747166
0.31776235 0.114956565 -0.19739084 -0.663439 0.10121398 -0.26366457 0.08322747 -0.6932171
-1.0494543 -0.056689154 0.1265692 0.23700844 -0.3305934 0.108614385 0.2480955 -0.3553854
-1.0309988 0.10149755 -0.13290733 0.48909146 0.090719275 0.29988706 0.16721287 -0.12003043
0.022680812 0.06977136 -0.024029594 -0.31061643 -0.035371896 -0.020431736 0.10768279 -0.13746233
0.10933611 0.106978156 0.09458264 0.13083425 -0.21325037 -0.034692455 0.04406763 -0.11753039
0.11090519 0.06336074 0.10928094 0.09660084 0.07261422 0.013148235 -0.12375682 0.3886063
0.07725599 0.06361883 -0.06385127 0.1132255 0.06304872 -0.029645847 -0.029916912 0.13596937
0.05776294 0.19618055 -0.05232718 -0.011539544 -0.22347046 -0.111691706 0.08342263 -0.0847045
0.14565781 -0.0486806 -0.042557437 0.013856362 0.0438631 0.035091706 0.023522176 0.07770831
-0.16811037 0.22702473 0.29019323 -0.010467414 -0.0005507026 0.047804467 -0.085436314 -0.21768972
-0.28176472 0.043347184 -0.09827648 -0.057180464 -0.28833383 -0.056890763 0.0791249 0.100373134
-0.10866506 -0.012450315 0.15676482 -0.027903864 -0.094336554 -0.17410661 -0.11315483 -0.033249117
0.13407455 0.1269969 -0.10730663 0.2173019 -0.13822426 -0.048193384 -0.20523056 0.17910697
0.13704216 0.08682084 0.04040994 0.057372082 0.16834815 0.1490384 -0.14766037 0.048329145
0.116059385 0.24194717 0.16702206 0.13340369 0.028067498 -0.31574944 -0.047288902 -0.0060941237
-0.08803579 0.024407655 -0.16400495 -0.12791732 -0.0901031 0.071903974 0.038693536 0.113200076
-0.2716045 -0.030507263 0.0076917824 0.026809072 0.18597405 0.082447805 0.09605193 -0.04881537
-0.050166342 -0.12438142 -0.15138203 -0.12238501 0.2621893 -0.10438965 0.036527462 0.08010183
-0.14179225 0.34848264 0.062788524 0.15042548 0.035334207 -0.16225182 0.108974546 0.033604413
-0.20550257 -0.44649756 0.23633724 -0.24553308 -0.072432294 -0.55651003 -0.002948275 0.15873416
-0.2610246 -0.22875382 0.47915465 0.36554855 -0.029102407 -0.26596734 0.017849516 0.26025945
0.66802454 -0.45352486 -0.91588205 -0.17898275 0.46203142 0.33568022 0.27457145 -0.18966621
-0.080928475 -0.016501054 0.24837078 -0.5141968 -0.31411105 0.106758 0.56051826 0.13804612
-0.19415686 0.68380594 -0.01165755 -0.16512072 -0.07140972 -0.07828851 0.20680636 -0.23708212
-0.85282147 -0.33817244 0.28961384 0.48089403 0.28607267 0.14779474 0.12041922 0.2283423
-0.01540029 0.13980071 0.25175548 -0.20233189 0.29779226 0.62432545 -0.08860148 -0.0300275
-0.014437153 0.17629305 0.26779217 -0.058922753 0.075695656 -0.041231755 0.014607031 -0.35044312

model/dense_2/BiasAdd/ReadVariableOp:0 f4 [64]
00000000: f114 6d3e 8f9b 703e 9250 523e 0587 a13d
00000010: 2782 2abd 9390 763e 7d2f 593e 0d76 7c3a
00000020: 16d8 f33d 98d1 923e 6aee 963e 5f21 22bc
00000030: 280b 193d ffbc fe3d 9c39 2e3c 4357 763e
00000040: 1d0b a63d a5b5 303e 673b 1f3e 252d 453e
00000050: b7d0 6a3e d798 903e a7c7 4a3e 5140 193e
00000060: 8a8c 733e 9f0b ce3d ec86 233e 8da6 9d3e
00000070: f04f d03d 4dd2 293e 7a72 4e3c 065b 6e3e
00000080: 0f4a 233e cd64 783d 8e92 57be 71a5 a6bd
00000090: e58a 5bbe 9f6e c83d dfd6 0a3e dc6e 613e
000000a0: 44d2 623e 9f60 413e e3f4 1e3e f081 d0bd
000000b0: 6b93 203d 5d08 053e 8898 3a3e 2236 223e
000000c0: ee09 8a3e ebd3 413e ad2b 643e 3f71 563e
000000d0: 9c89 34bd 4803 423e fc03 633e bca4 4e3b
000000e0: 9539 4e3e 60af 263e a1a6 db3d 052a 603e
000000f0: de4c 333e 02c7 8f3e 2ebd 0f3e 7b9a 1f3e
0.2315252 0.23496841 0.20538548 0.07887081 -0.04162803 0.24078588 0.21209522 0.0009630628
0.119064495 0.28675532 0.2947877 -0.009895652 0.037364155 0.12438392 0.010633852 0.24056725
0.081075884 0.17256792 0.15550004 0.19255503 0.22931181 0.28241608 0.19802724 0.14965941
0.2378408 0.1006081 0.15969437 0.3079113 0.10171497 0.1658413 0.0126005355 0.2327691
0.1594622 0.060643006 -0.21052 -0.08137024 -0.21439703 0.09786724 0.1355853 0.22014946
0.22150522 0.18884514 0.15523104 -0.101810336 0.03920309 0.12991472 0.18222249 0.15840963
0.269607 0.18928497 0.22282286 0.20941637 -0.044076547 0.18946564 0.22169489 0.0031531295
0.20139153 0.16277838 0.10725141 0.21891029 0.17509791 0.28081518 0.1403701 0.15586273

model/dense_1/MatMul/ReadVariableOp:0 f4 [64, 128]
00000000: 9b60 1abf 4fd2 86bd 5c63 273d 629f 46be
00000010: 5caa f13e add4 a6bb 9208 b5bd fa10 81be
00000020: 6bc9 853c ec50 fbbd e88d 1cbc d8af 943d
00000030: efc0 743e 6028 d9bd 9b02 c33d e0ca 0a3d
00000040: 1abd c6bb eede 393d 0681 57bc 4cf1 173e
00000050: 04c6 b43d b4b2 a13d 3bd9 d7bf 47c9 823e
00000060: 144b c03e f3ac b93d 1adf 04bf d311 dc3d
00000070: 93b8 6ebd 5493 5fbd 9fc7 e8be f508 4f3d
00000080: 63a8 e33d 7459 cabf 1b19 023d dcec 963e
00000090: 29d6 bdbd 77e1 c0bf 62a9 1abe 2103 ad3d
000000a0: aec5 3d3e 6603 1c3e f0ba e93d 4fc6 1a3d
000000b0: 1f44 913c eed0 363d 0e11 39bf db72 d63d
000000c0: 910c a93e f1c2 6e3e fe57 00bd 81d8 aabd
000000d0: 774d 4a3e 3d89 293d 1fa9 14be 242e a7bd
000000e0: 575b 723b da9c f83d 47bd 9dbb 13a1 8bbc
000000f0: 4657 42bf fc58 813d 8f97 55be 8678 5e3e
00000100: dce7 fabc b4c3 adb9 eadb 26bd 18d0 913e
00000110: 18f6 353d 2aed e53d 293f d93d 7d66 9e3e
00000120: 68ca 793d 8004 72bf ca8a c33c a2ac f9be
00000130: d00d c43d 7e58 c03e 1948 963c 1e94 8b3d
00000140: 7743 613e de28 523d a0b4 b2bd d0c9 053e
00000150: 5d31 d4bd f4a0 0a3e e699 af3b 4a74 dbbf
00000160: 1479 d7bd 22b1 ab3e 7328 d4bd 171b 6bbf
00000170: ed9c 673e 0def 413e 64e9 393d dcbb 213d
00000180: 7c49 30bd 8592 68bf 9631 2f3d 0777 9cbd
00000190: 57e0 84bf 7ac0 0dbe 7d6c 95bf 09c4 e23c
000001a0: 3fc2 f3bc 0530 2ebc 3565 74bf 1aad d73d
000001b0: b526 913e fe2f 2ebd 83d8 033e db29 6f3d
000001c0: 100a d6bc 6618 93be 0159 afbf 8f96 823e
000001d0: 3b6d 05bf bd14 a5bd b590 b3bf 98aa 85bf
000001e0: 0eee 17bf 8f48 8c3d 3c08 b23c 2c80 63be
000001f0: d244 36bf a800 6cbd 5495 843d 0d49 02be
00000200: 3ff0 dfbe cadb eb3d e394 423d 7373 693d
00000210: 9064 84bd c045 3dbd 858b cabc a40c d53d
00000220: 65aa 9f3d 8438 1fbe 10f5 933e 17ee 00bd
00000230: 0ff1 4dbe b332 0cbc 2c74 6abf 8dcd 9abf
00000240: 0efa 65bb ee71 9dbd 6d05 9abf bb0f 62bd
00000250: b200 69bc fd6c 83bd fbb9 983d fa61 62b9
00000260: e9dc 723e e494 d5be b887 853d 11b3 9dbd
00000270: 25ea 0a3e 8fb5 ccbd d66f 4a3d d5ae 41bf
00000280: 9bd0 1b3b a5c1 733a 73a3 85be 509e 32bd
00000290: 8041 adbf 4451 8bbe 2996 84be 039c ca3e
000002a0: 4f7b 4fbf bff7 86bd d69a d9bd 76a9 58bd
000002b0: 7134 34bf a47c 31bf d315 f93d d9ae 35bd
000002c0: 8d2a 9c3b 7ec3 96bd 1fe7 f1bd 2076 30bf
000002d0: 9e38 a3bd 4a0b 06be 81e1 dcbd c6a3 74bd
000002e0: 5f42 263e ae92 aa3b f864 be3e 7386 95bc
000002f0: 0310 8e39 87bc a7be 60b8 02bd 953e 173e
00000300: 12fd 78bb 6cfa 733e ac12 0f3e 1d81 843c
00000310: 7617 fbbc a885 e63c 39cf 2fbd 8888 983c
00000320: 65de f23e cba3 bfbd d2cd 25ba 9835 2fbe
00000330: 5711 403b ac85 5cbd 1dbb edbb c538 7dbf
00000340: 986d 3b3e 9039 be3d 40c2 4d3e 99b7 8cbd
00000350: 6f97 7dbe a011 223e 6fc3 88bf 8de0 3cbd
00000360: e030 8dbe fd9b 233d bb52 e1bd 9d64 373d
00000370: 62bc c9ba e72f cebd 1cfa e93d a80e 04bc
00000380: 6f4a 473e 7cd5 eb3c b9e9 3bbd a2a0 c2be
00000390: 578f ab3d 52ba 763b e52f aebc 94a6 2cbf
000003a0: 9b57 19bf e8fe e1bd f93f 09be 68fb 82bc
000003b0: 3842 82bf a90f 883d c838 663d e019 0bbd
000003c0: f4c9 143e 287d 6abf 0190 0bbd d4d6 853c
000003d0: 2ca9 c5bd 791c 5ebe 6153 79bd 0a68 25bd
000003e0: b160 bc3d aa12 8fbe 7fe9 b8bf 7816 4c3e
000003f0: ed20 b3bd 8c0a d3be 2aee 82be 8302 a03c
-0.6030366 -0.06583082 0.04086624 -0.19396737 0.47200286 -0.005091271 -0.08839525 -0.25208265
0.016331395 -0.12271294 -0.009555317 0.07260102 0.23901723 -0.10603404 0.09521981 0.033884883
-0.006065023 0.045378618 -0.01315332 0.14838141 0.08826831 0.07895413 -1.6863168 0.25544187
0.3755728 0.090661906 -0.51902926 0.10745587 -0.058281492 -0.054583862 -0.454648 0.05054565
0.111161016 -1.5808549 0.031762224 0.29477584 -0.092693634 -1.5068806 -0.15103677 0.084478624
0.1853244 0.15235671 0.114126086 0.037786778 0.017732678 0.044632845 -0.7229165 0.10471126
0.330174 0.23316552 -0.031333916 -0.08342076 0.19756113 0.041390646 -0.1451764 -0.081630975
0.0036980712 0.12139292 -0.0048138234 -0.01704458 -0.7591442 0.063158005 -0.20858596 0.21725664
-0.030628137 -0.00033142942 -0.04073707 0.28479075 0.044424146 0.11226876 0.1060775 0.30937567
0.060984045 -0.94538116 0.02386989 -0.4876452 0.09572947 0.37567514 0.018344926 0.068153605
0.21998392 0.051308505 -0.08725858 0.13065267 -0.10360978 0.13537961 0.0053589223 -1.7144864
-0.10521141 0.3353358 -0.103592776 -0.9183821 0.22618456 0.18938847 0.045388594 0.039485797
-0.04303883 -0.9084857 0.0427719 -0.0763989 -1.0380963 -0.13842955 -1.1673733 0.027681367
-0.02975571 -0.010631566 -0.9546693 0.105310634 0.28349844 -0.042526238 0.12875561 0.058389526
-0.026127845 -0.28729552 -1.3699037 0.25505492 -0.521198 -0.08060596 -1.4028536 -1.0442686
-0.5934762 0.06849777 0.021732442 -0.22216862 -0.7119876 -0.057617813 0.064737946 -0.12723179
-0.4373798 0.11516531 0.04750527 0.056994867 -0.06464493 -0.046209097 -0.024724731 0.10402802
0.07796172 -0.15548903 0.28897905 -0.03147706 -0.20111488 -0.0085570095 -0.91583514 -1.2093979
-0.003509167 -0.07687746 -1.2032906 -0.055190783 -0.014221357 -0.06417272 0.07457348 -0.00021589539
0.23717083 -0.41715157 0.06520027 -0.0770017 0.13565882 -0.09995567 0.04942306 -0.756574
0.0023775462 0.00092985696 -0.26101264 -0.04360801 -1.3535614 -0.27210438 -0.25895813 0.39572152
-0.8104753 -0.065902226 -0.10625236 -0.052895986 -0.7039252 -0.6933081 0.12162366 -0.0443562
0.0047658146 -0.07361506 -0.11811661 -0.68930244 -0.07969783 -0.13090244 -0.10785199 -0.0597265
0.16236256 0.005205474 0.37186408 -0.018252587 0.0002709628 -0.32761022 -0.031914115 0.14769967
-0.0037992639 0.23825997 0.13971967 0.016174847 -0.030650835 0.028139904 -0.042922232 0.01861979
0.474353 -0.09357413 -0.000632492 -0.17110288 0.002930721 -0.053838417 -0.0072549717 -0.9891475
0.18303525 0.09288323 0.20093632 -0.06870956 -0.24764799 0.15827036 -1.0684642 -0.046112586
-0.2757635 0.039943684 -0.11002108 0.044773687 -0.0015391225 -0.100677304 0.11424658 -0.008060135
0.19461988 0.02878832 -0.045877192 -0.38013178 0.08376949 0.0037647677 -0.021263072 -0.6744168
-0.598993 -0.11034948 -0.1340331 -0.01598902 -1.0176458 0.06643612 0.056206495 -0.033960223
0.14530164 -0.91597223 -0.03407288 0.01633779 -0.096514076 -0.21690549 -0.060870532 -0.040382423
0.0919813 -0.27943927 -1.4446257 0.19930446 -0.087465145 -0.41218984 -0.2557233 0.019532448

model/dense_1/BiasAdd/ReadVariableOp:0 f4 [128]
00000000: f748 0d3d e778 e93c 1c04 063e 506f 933d
00000010: 4300 3abd 0e0f 613d ab73 6d3d fb0b a93c
00000020: a044 cc3c a2a3 013e f01d b3bc b883 bebc
00000030: 88b7 65bd c84e 42bc fdc6 c33b f477 213d
00000040: 4d81 903d cbeb 043e fec0 693d 9268 3b3d
00000050: b7d6 c8bd 5b14 153c 3d25 643d 412f bfbd
00000060: 3de3 29bd 5874 353d 1382 073e c0fe 0c3e
00000070: 238d b13c c2ef c43c 9e6e d4bd fe9e 523c
00000080: c0c6 6abd aace bb3d fba2 513d 70d4 a83c
00000090: 71f2 b03d 84aa 633d 0e50 1d3e ef29 383b
000000a0: 327c 023d 71dc 583d a85a 733c 0efb 573d
000000b0: f2fd 2a3d 26d8 caba 3203 92bb 539e a23d
000000c0: 0eb6 f5bd b1c0 eebd 8cc8 94bd 33f4 00bc
000000d0: 22b0 28bd aaf5 653c 0e0e 01bd cb13 0c3d
000000e0: a979 0c3d 84ab f03c 0fcd abbb 4b3d b33c
000000f0: 2d11 223d 315c aa3c f62d 633d 4687 16be
00000100: 0b49 cc3b 89be c1bb bab1 54bd 3629 a1bd
00000110: bad9 6a3d 56d1 b7bb c906 17bd 74fe a4bd
00000120: 4686 b03c 2dba ca3d bddc 303c 2bcc 203d
00000130: a719 dabc 7032 33be 7ccf 2e3d f075 553d
00000140: 78c7 8abc 223a 14bd 4df5 a73c fb4f 723d
00000150: 0c48 793d eb74 91bd 3317 d53c 000e 073d
00000160: 914b df3c 6ee1 93bd 2806 f03c 8265 443d
00000170: 85a3 37be 46e7 6fbc 393c 663d fa3f 1abd
00000180: 760f 733c fda2 fa3d 9a95 9bbd 3998 423d
00000190: 7b0c ae3b a7da 9ebd c2ed 2d3d 3c84 553d
000001a0: 7578 a33c 3a55 443d 51fb 2a3d 4302 ab3d
000001b0: f6c4 c73b 43a4 2d3c 6821 6e3c b0c2 f2bc
000001c0: 2c1d 803d df9d e33d 91e0 043e 7dfb c1bb
000001d0: 5a1a a1bd f8d1 d6bd f36e b83d 6bf3 c63c
000001e0: 36f7 923c 687a 273c f304 993d 1e52 9ebc
000001f0: 0863 553c 2853 803b cba7 0e3a 3892 16bc
0.034493413 0.028500034 0.13087505 0.071989655 -0.045410406 0.054945998 0.057971638 0.020635596
0.024935067 0.12660077 -0.021864861 -0.023256168 -0.056083232 -0.011859603 0.005974649 0.039421037
0.07055912 0.12980573 0.057068817 0.045754023 -0.098065786 0.009099091 0.055699576 -0.09335185
-0.041476477 0.044300407 0.13233213 0.13769054 0.021673745 0.024040107 -0.10372661 0.0128552895
-0.05731845 0.091702774 0.05118082 0.02060911 0.08639992 0.05558254 0.1536257 0.0028101166
0.031856723 0.052944604 0.014853157 0.05272966 0.041746087 -0.0015475794 -0.0044559473 0.07940354
-0.11997615 -0.11657847 -0.07264814 -0.007870722 -0.0411836 0.014035622 -0.031507544 0.034198564
0.03429571 0.02937866 -0.0052429507 0.021879813 0.03956716 0.020795913 0.055463754 -0.1470004
0.0062342933 -0.005912606 -0.051927306 -0.078691885 0.057336546 -0.0056096716 -0.036871705 -0.080563456
0.021548402 0.098987915 0.010794816 0.03925721 -0.02662356 -0.17499709 0.04267834 0.052114427
-0.016940817 -0.036188252 0.02050271 0.059158307 0.060859725 -0.071023785 0.026012039 0.032972336
0.027257713 -0.07220732 0.02929981 0.047948368 -0.17933472 -0.014642542 0.056209777 -0.03765867
0.014835229 0.12238119 -0.075968936 0.047508452 0.0053115464 -0.077565484 0.04246307 0.05212806
0.0199549 0.04793284 0.04174358 0.08350041 0.0060964776 0.010598245 0.014534332 -0.02963385
0.06255564 0.11114096 0.1297629 -0.0059198723 -0.07866354 -0.10489267 0.09005537 0.024285993
0.017940145 0.010222055 0.07471647 -0.019326266 0.013024099 0.003916163 0.0005441873 -0.009190135

model/dense/MatMul/ReadVariableOp:0 f4 [5, 64]
00000000: 2b5e fdbd 1b66 13be 6f2b 32be 1d29 1ebe
00000010: 5a61 09bd 5743 f43e eeb4 903d 7ec8 64be
00000020: ee63 03be 1707 2abd e07b 8d3e 5592 113f
00000030: 6bde 73be e1c5 cb3e b67e 0ebe 50fa 0fbf
00000040: 72a1 57be ebdb 8ebd 1a49 803e cd2c 8bbe
00000050: 459e 99bd 6f48 c4be ae67 123f 3f27 8bbe
00000060: 4f03 873e cf22 b5bd 3e41 8ebe 2f74 813e
00000070: c667 333e d504 00be 98af b7be 8395 abbe
00000080: fd14 673e 9f02 3abe 2e00 103f 1ea8 093d
00000090: ca65 80be 7e81 0a3f 46b1 10be 8b67 853e
000000a0: f976 b1be b671 37be c101 04be 5550 29be
000000b0: 008f cbbb 96be 6cbe 22ba 913e 7d18 88bc
000000c0: 7a88 273c edb8 c4be 8196 fbbd 4c46 7b3d
000000d0: 4b37 e63e dc04 1d3f edc8 48be 5457 0fbe
000000e0: fc25 033e 9708 09be cec4 99be 0596 6abe
000000f0: 2085 183d 816f 64be e85d 843e 6814 16be
00000100: 78dc e43c d9ae c6be 8059 92be 0bdc 9dbe
00000110: 4638 7dbe 50f8 e7be 9534 e5bc 5586 1f3f
00000120: a04a 18bc 82b2 e03c 7d01 b03e 60a5 71bd
00000130: d4b2 2dbe c6d4 fb3d 443e 263f 12ca d43c
00000140: 5eed 93be 4ff9 38be e9d9 b83e b2ce e93d
00000150: 3e0a 52be ceac 8fbd d61a 8dbe d646 fa3e
00000160: 861e b73e 677a afbe cd1c 9ebe ae64 fb3e
00000170: c127 c0be e941 f43b d094 83bd 2f50 0a3f
00000180: cf3d ff3e 1faf 31be 83fb 68be 103d fb3e
00000190: 5632 e7bd 0b1e 77be cd8a 3ebe dd7a c23e
000001a0: 5683 8abe 828d 503b 9423 e2bd 44f0 023f
000001b0: d471 3fbe a2aa 173f 3b04 d03e 6366 d9be
000001c0: 3325 b43d 5e14 8ebd 13a1 a6be 73f5 91bd
000001d0: 2bbd 003d b245 6fbe d513 66be ea8b a5be
000001e0: e2f2 cbbe 348f dcbc 9087 4fbe 84fc fcbd
000001f0: 9bea 5fbe c6a9 1f3f 6a32 c63e 51c6 85be
00000200: 861b be3e 3fcc 18be f658 293f 255d 2f3f
00000210: 965a 2c3f e0e5 cebb e7e6 06bf 74a4 9dbe
00000220: 2d83 853c d461 5cbc d797 bd3d 952d d3bd
00000230: f435 243f 008a b8be eb59 d9bd a57a bd3e
00000240: 3415 113f 5bb3 103f 3789 e4be ac10 9ebe
00000250: 41a9 1d3f cef2 abbd 6b21 25be 6707 cebd
00000260: aea8 2e3e 19a0 e2be 441c 103f 0363 8abe
00000270: c795 16be 4439 d33e b0b6 033f df75 9dbd
00000280: 3608 78be f661 c3bd 2eb9 0fbe 5a8d cdbe
00000290: 70f5 fe3c b184 ccbd 8a55 f0bd fef3 3d3d
000002a0: be63 053f b50f 883e 4471 f63e d1de 58be
000002b0: 583c 1c3f 9bcd a2bd 8e01 893d 9480 bbbd
000002c0: e4fd 37bd 79af 91bd de7c f63e 3eb3 f53e
000002d0: 7621 f1be f33d 6abe 7b44 4cbe 135b d1be
000002e0: 4251 bbbe 2e0e df3e 079a 7dbe b0dc 53be
000002f0: c62c d7be e2e8 70be 1a11 d1bb fd66 243f
00000300: b843 d93e 79f1 603d 42c4 333d 777c 19bd
00000310: ad99 86be f4e5 5e3c 815e da3a 97e8 6bbd
00000320: dad9 113f 1fc6 fd3e bb62 9abe 754d fe3c
00000330: 4437 853d 2b92 c8bd a42c b3bd 84d0 a9be
00000340: aea0 d83d 571e 56be 6fd1 77bd fc81 043d
00000350: a5c9 aabe 5fe0 223d bdb5 65bd 537b f2bc
00000360: 3202 3fbe b6ec b33b 394b fcbc 8898 8fbe
00000370: f864 2ebe 534b df3e 545f 293d b779 5abd
00000380: 6f88 9bbe 118a d43c 8d53 68bc bf5d 9fbd
00000390: 9cba efbd 594a 7dbc a7bf 893c eed5 83be
000003a0: eb65 a03d 908a 013f eda2 993e 0bac 27bd
000003b0: b0a5 a6be 872e 27bd ffa1 8cbe fdce b23d
000003c0: 915c 013f 32d7 8d3d 6a08 e63d 070f b4be
000003d0: 98bd 18bd 4315 89bd bf27 f83c 9235 0d3e
000003e0: de98 0e3d e7f9 c03e 37ea c63e 81e4 443d
000003f0: 0c04 d4bd 163a 45bd 6f87 80be 948a 56be
-0.12371477 -0.14394419 -0.17399381 -0.15445371 -0.033540107 0.47707626 0.070657596 -0.22342107
-0.12831089 -0.041510668 0.27633572 0.5686391 -0.23815314 0.39799407 -0.13915524 -0.5624132
-0.2105768 -0.0697554 0.25055772 -0.27182618 -0.07500891 -0.38336512 0.5718945 -0.2717838
0.26369712 -0.0884453 -0.2778415 0.25283954 0.17520055 -0.12501843 -0.35876155 -0.33512506
0.225666 -0.18165062 0.56250274 0.033607595 -0.2507766 0.5410384 -0.14130124 0.2605556
-0.3466108 -0.17914471 -0.12891294 -0.1653455 -0.0062121153 -0.23119578 0.2846232 -0.01661324
0.01022541 -0.38422337 -0.12284566 0.061346337 0.4496406 0.6133554 -0.19607897 -0.13998157
0.12807459 -0.13382183 -0.30032963 -0.2290879 0.037236333 -0.2230816 0.25852895 -0.14656222
0.027937159 -0.38805273 -0.28583908 -0.30831942 -0.24728498 -0.45306635 -0.027979175 0.6231435
-0.009295136 0.02742887 0.34376135 -0.058995605 -0.16962749 0.12296443 0.6493876 0.02597526
-0.28892034 -0.18063854 0.36103752 0.11416377 -0.2051172 -0.07015382 -0.27559537 0.4888217
0.35765475 -0.34273073 -0.30881348 0.4910025 -0.3753033 0.007454146 -0.06424868 0.540286
0.49851844 -0.1735196 -0.22752194 0.49070024 -0.11288898 -0.24132554 -0.18607636 0.37984362
-0.27053326 0.0031822626 -0.11041942 0.51147866 -0.18695766 0.5924474 0.40628228 -0.42460927
0.08796158 -0.069374785 -0.32544765 -0.07126894 0.031430405 -0.2336643 -0.22468503 -0.32333308
-0.39833742 -0.026923753 -0.20266557 -0.12352851 -0.21866839 0.6236843 0.38710338 -0.26127866
0.37130374 -0.14921664 0.6615137 0.685015 0.67325723 -0.0063140243 -0.5269608 -0.3078953
0.016297901 -0.013451058 0.09257477 -0.103114285 0.64144826 -0.36042786 -0.106128536 0.37007633
0.5667298 0.56523675 -0.44635937 -0.30872095 0.61586386 -0.08395921 -0.16126029 -0.10060006
0.17056534 -0.4426277 0.5629313 -0.27028665 -0.14705573 0.41254628 0.51450634 -0.07688498
-0.24221882 -0.09540169 -0.14035484 -0.40146905 0.031122893 -0.099862464 -0.11735065 0.046375267
0.5210532 0.26574484 0.4813329 -0.21178748 0.6102958 -0.079493724 0.0668975 -0.09155384
-0.044919863 -0.07113547 0.4814214 0.47988313 -0.4709584 -0.22875194 -0.19947998 -0.40889797
-0.36585432 0.43565506 -0.24765788 -0.20689654 -0.42026347 -0.23526338 -0.0063802125 0.6421965
0.42434478 0.054917786 0.043888338 -0.037472215 -0.2628912 0.01360463 0.0016660244 -0.05759486
0.5697304 0.49565217 -0.3015345 0.031042794 0.06504682 -0.09793504 -0.08748749 -0.33166897
0.10577522 -0.20910011 -0.060502466 0.032350525 -0.33356968 0.03976476 -0.056081522 -0.029599821
-0.18653181 0.0054908646 -0.030797588 -0.2804606 -0.17030704 0.43612155 0.041350678 -0.053338733
-0.30377528 0.025944741 -0.014180076 -0.077815525 -0.11705515 -0.01545962 0.01681502 -0.25749153
0.07831939 0.50602055 0.30007115 -0.040935557 -0.32548285 -0.040815856 -0.27467343 0.08730886
0.5053187 0.06925811 0.112320736 -0.35167715 -0.037290186 -0.066935085 0.03029239 0.13789967
0.034813754 0.3769066 0.38850567 0.04806948 -0.103523344 -0.0481511 -0.25103328 -0.20951301

model/dense/BiasAdd/ReadVariableOp:0 f4 [64]
00000000: 1924 d1be 9985 86bd a9d5 39be 9013 2bbe
00000010: d54f 62be 2816 2bbd 50da 2abd bbb3 1bbd
00000020: d9d8 b8be aff4 98be 3858 44be 9b2e 95be
00000030: 3351 2abe 9b5b af3b 7a0a 5bbe be84 c0bc
00000040: 4928 63bd fdf7 31be ee0b cd3c 6e40 14bd
00000050: b92a d3bd 087e b1bc 6a50 21bd 9a5c 50bc
00000060: b097 8dbe 9f78 c23e 4e4d a4bc 710a 34be
00000070: 24f2 2f3d 2694 debe 72b8 9fbc c202 67bb
00000080: 6918 07be f187 6dbe be03 22be 2048 bdbb
00000090: 0000 0000 5a5f 1fbe 2bac 61be 8022 2cbe
000000a0: a932 8ebd 5696 d6be 0072 92be d5c9 1abd
000000b0: 5c7f 11be b6b7 c1bd fde7 7abe 2c82 56bd
000000c0: 873b a4be 3733 30bc f557 96bd e3cb 3ebd
000000d0: b5ea 8a3c bff6 8dbd 691a f1bd 36f3 a63e
000000e0: c2f6 8d3c f8d3 b4be 8977 cb3d 481c a9bd
000000f0: 5a11 b73e a7c4 28be 77fe 4bbe 9f9a c6bd
-0.40847853 -0.065684505 -0.18147911 -0.16706681 -0.22100766 -0.041769177 -0.041712105 -0.0380132
-0.36102942 -0.2987418 -0.19174278 -0.2913712 -0.16632538 0.0053514964 -0.21390715 -0.023500796
-0.05545834 -0.17379756 0.025030103 -0.036194257 -0.10310883 -0.021666542 -0.03938333 -0.01271739
-0.2765479 0.37982652 -0.020056393 -0.17582108 0.042955533 -0.43472403 -0.01949713 -0.0035249447
-0.13192905 -0.23196389 -0.1582174 -0.0057764202 0.0 -0.15563717 -0.22038333 -0.16810036
-0.069432564 -0.41911572 -0.286026 -0.03779014 -0.1420874 -0.09458868 -0.24502559 -0.052370235
-0.32076666 -0.010754398 -0.07340995 -0.04658116 0.01695762 -0.06931829 -0.117726155 0.3260743
0.017329577 -0.3531797 0.09934909 -0.08257347 0.35755426 -0.16481267 -0.1992129 -0.096974604
